model.pkl (torch_old, 407880 bytes, 4 tensors)

hidden.weight f4 [128, 784]
-0.0036240257 -0.029504105 -0.017334735 0.029513184 0.026972156 0.020687256 0.0020514429 -0.028711388
-0.02711558 0.029315304 -0.0056443643 0.034439232 0.0143460855 -0.033783138 -0.0013777935 -0.034663722
-0.020858824 0.017798051 0.0026267134 -0.0057355333 -0.020783702 0.029959675 -0.029450485 -0.00044166297
-0.009134434 -0.012463665 -0.00079967827 -0.022264168 0.00048496202 0.020066071 -0.020372715 0.003478881
0.031604692 -0.017073043 0.02934272 0.007776983 -0.01788052 0.025204256 0.012238244 0.023892215
-0.0009308297 -0.028593713 0.02482762 0.019127896 -0.012649374 0.0038179557 0.02377294 0.03126644
-0.024659349 -0.019449905 -0.014586027 0.023326756 0.026804123 -0.029861733 0.013508912 -0.012129111
0.027545687 0.014556397 -0.010649229 0.021766635 -0.026377903 0.016803762 0.020107985 0.031429578
-0.017328702 0.0023939402 -0.020081123 -0.01667972 -0.022069931 -0.0023708649 0.026163403 -0.0140001895
-0.026042216 -0.022842035 -0.033094227 0.0011124394 -0.00034327272 -0.03639142 0.026348775 -0.0027381051
-0.035524886 -0.012851519 0.029951777 -0.03429866 -0.018345183 -0.031834677 0.032306876 -0.02119399
0.0011859387 -0.03173268 0.022259142 0.02642631 0.011914177 -0.031918015 -0.0051355762 -0.029567111
-0.04081574 0.011615085 -0.03251347 -0.03371127 -0.0032506143 -0.007093742 -0.03766892 0.012139794
-0.022024967 -0.0077054524 0.023194011 -0.001800759 -0.017013185 -0.005704255 -0.019545516 -0.0013948269
0.008722309 0.016900742 0.017145036 0.0075405654 0.01251541 0.0016956333 0.0052485536 0.03299203
-0.008550514 -0.03463806 -0.04074867 -0.018560989 0.00027093542 -0.03611613 -0.044117756 -0.013760486
-0.04129473 -0.040688995 -0.00089274795 0.02558345 0.0074524744 -0.016634287 0.029163167 0.0058938465
0.0035318623 -0.02803041 0.00072443153 0.024087619 -0.0121051725 0.008644059 0.017210305 0.030068243
-0.026409917 0.032917313 0.011769467 -0.013145729 -0.043031354 0.0035191732 -0.007111085 -0.028581621
-0.004434648 -0.022886664 -0.025247926 -0.027888509 -0.030921906 0.015873592 0.010809519 -0.021928757
0.003981812 -0.00060923706 0.006560928 0.023155732 0.007992383 0.026795043 -0.0027630425 -0.013498076
-0.031279474 -0.0086520575 -0.029613981 -0.0015507874 0.00966103 0.027583798 -0.0067990054 -0.029810604
-0.011356323 -0.020747518 0.018696109 -0.01290423 -0.036914118 -0.020128759 -0.018951371 -0.022602338
-0.0023814046 -0.00084103324 0.020884573 -0.010782724 0.033411715 -0.0064745797 -0.002120662 0.016146498
0.0145686185 0.011215024 0.010604009 -0.020685473 0.031198097 0.006008906 -0.012223258 0.02299628
0.010133907 0.0056001386 0.010078516 0.010170417 -0.031525653 -0.008600472 0.013128657 -0.0155054685
0.023106467 0.021943698 -0.012395437 -0.04414951 0.027610883 0.0056016063 0.03978336 0.024615157
0.02701819 0.00089637603 0.0024788433 0.0050785346 -0.010014679 -0.018630495 0.0002421543 0.018816808
-0.0041645076 -0.013546675 0.008931885 -0.0029893692 -0.037245423 0.0022988939 -0.033625305 -0.043773804
-0.02339337 -0.011213326 0.028119195 0.024301413 0.021902097 -0.005129177 -0.003990309 -0.005024515
0.015036837 0.044615477 0.0099203875 0.044176403 0.0037295972 0.024211755 0.03714106 0.007139147
0.021167224 0.0086835325 -0.033714216 -0.029369365 -0.016915496 0.024463985 -0.033313986 0.019076016
00000000: 1081 6dbb 98b2 f1bc 9301 8ebc a2c5 f13c
00000010: b6f4 dc3c 5278 a93c 8071 063b 2534 ebbc
00000020: 7e21 debc a626 f03c 5cf4 b8bb 2710 0d3d
00000030: d80b 6b3c 3060 0abd 1497 b4ba 8cfb 0dbd
00000040: 20e0 aabc 38cd 913c f024 2c3b 24f1 bbbb
00000050: 9542 aabc fe6d f53c 2542 f1bc 008f e7b9
00000060: 98a8 15bc 6634 4cbc 80a1 51ba 5863 b6bc
00000070: 8042 fe39 9a61 a43c aee4 a6bc f0fd 633b
00000080: ec73 013d c4dc 8bbc 2560 f03c 10d6 fe3b
00000090: 2b7a 92bc 2879 ce3c ea82 483c 9bb9 c33c
000000a0: ec02 74ba 5d3d eabc 4b63 cb3c 1bb2 9c3c
000000b0: 523f 4fbc ab36 7a3b 78bf c23c 3d11 003d
000000c0: 6702 cabc 6855 9fbc 3bfa 6ebc c117 bf3c
000000d0: 5294 db3c 98a0 f4bc 7c54 5d3c 2eb9 46bc
000000e0: 7ea7 e13c f47d 6e3c 1b7a 2ebc f14f b23c
000000f0: 7916 d8bc 0ba8 893c 80b9 a43c 4dbc 003d
00000100: ecf4 8dbc a7e3 1c3b 2b81 a4bc e8a3 88bc
00000110: 00cc b4bc 8360 1bbb a254 d63c 0d61 65bc
00000120: 7c56 d5bc 381f bbbc d08d 07bd 46cf 913a
00000130: 49f9 b3b9 2b0f 15bd 63d9 d73c c871 33bb
00000140: 8b82 11bd 2d8f 52bc 6e5d f53c c07c 0cbd
00000150: a348 96bc 1465 02bd 3754 043d 059f adbc
00000160: 8071 9b3a 20fa 01bd ce58 b63c fd7b d83c
00000170: ae33 433c 77bc 02bd 5648 a8bb ba36 f2bc
00000180: 682e 27bd 334d 3e3c d82c 05bd d414 0abd
00000190: 4208 55bb 9f72 e8bb ba4a 1abd fde5 463c
000001a0: b46d b4bc 057e fcbb 5e01 be3c 7207 ecba
000001b0: 3c5f 8bbc c2ea babb eb1d a0bc a0d2 b6ba
000001c0: 04e8 0e3c 6d73 8a3c bf73 8c3c d916 f73b
000001d0: 6f0d 4d3c 0340 de3a 0ffc ab3b a722 073d
000001e0: 7417 0cbc a3e0 0dbd 14e8 26bd 370d 98bc
000001f0: 560c 8e39 82ee 13bd d2b4 34bd a973 61bc
00000200: aa24 29bd 81a9 26bd 4d07 6aba 6294 d13c
00000210: e333 f43b a144 88bc 98e7 ee3c 2b21 c13b
00000220: d176 673b 08a0 e5bc c7e7 3d3a 6653 c53c
00000230: c654 46bc d09f 0d3c a0fc 8c3c ad51 f63c
00000240: 9c59 d8bc 4ed4 063d b9d4 403c 2f61 57bc
00000250: a541 30bd eea1 663b 1b04 e9bb 0124 eabc
00000260: 8650 91bb d07c bbbc bdd4 cebc 7176 e4bc
00000270: f04f fdbc 5609 823c 691a 313c f0a3 b3bc
00000280: dc79 823b 35b5 1fba 0efd d63b 17b1 bd3c
00000290: 7cf2 023c 4781 db3c 2914 35bb 0927 5dbc
000002a0: e81e 00bd 5cc1 0dbc 0599 f2bc ca43 cbba
000002b0: 4c49 1e3c 6bf7 e13c 31ca debb 5e35 f4bc
000002c0: df0f 3abc b3f6 a9bc 9528 993c 436c 53bc
000002d0: 4233 17bd 11e5 a4bc e83f 9bbc 8a28 b9bc
000002e0: 5711 1cbb c978 5cba 2016 ab3c 06aa 30bc
000002f0: b9da 083d b628 d4bb cefa 0abb a945 843c
00000300: 37b1 6e3c 38bf 373c 70bc 2d3c 9574 a9bc
00000310: 2793 ff3c 5be6 c43b 0f44 48bc b262 bc3c
00000320: b008 263c 5e81 b73b 5c20 253c d2a1 263c
00000330: 0b21 01bd fee8 0cbc 9419 573c a60a 7ebc
00000340: c649 bd3c 45c3 b33c 3b16 4bbc 1ed6 34bd
00000350: 3830 e23c ae8d b73b e0f3 223d baa5 c93c
00000360: 4055 dd3c c7fa 6a3a 1774 223b d669 a63b
00000370: 9c14 24bc fb9e 98bc cdea 7d39 b525 9a3c
00000380: 6c76 88bb e0f2 5dbc 0a57 123c 4be9 43bb
00000390: a88e 18bd 0aa9 163b b0ba 09bd 294c 33bd
000003a0: 74a3 bfbc 19b8 37bc 3a5a e63c c213 c73c
000003b0: 076c b33c a812 a8bb 23c1 82bb b0a4 a4bb
000003c0: 115d 763c b8be 363d 1f89 223c 51f2 343d
000003d0: 426c 743b bb57 c63c 3921 183d 81ef e93b
000003e0: e366 ad3c 6045 0e3c eb17 0abd 0698 f0bc
000003f0: 5e92 8abc b268 c83c 3f74 08bd 4e45 9c3c

hidden.bias f4 [128]
0.04917905 0.020428082 0.029913178 0.025117313 0.048149932 -0.013094593 0.00060645083 0.011022011
0.026985958 0.010941567 0.017183155 -0.0023477662 0.03545724 0.04569763 0.020695271 0.039421286
0.0011809366 0.052188355 0.0773678 -0.037203908 0.010659504 -0.037603926 -0.0041781073 0.025591714
0.019521853 0.052438255 0.04979391 0.0221319 -0.030573139 0.02030455 -0.0114357555 0.027168512
-0.011448023 0.06451432 0.010971836 0.05958607 0.035099547 -0.009892613 0.016534247 0.0332163
0.03593111 0.052332126 0.011456793 0.02859559 0.0053117 0.03337119 0.027861947 -0.038366266
0.023491362 -0.0033380573 0.03759271 0.03266245 -0.028151663 -0.01738815 0.023441944 0.026547438
0.016336698 0.040255 0.01703542 0.055333667 0.004641417 0.023577202 0.025444265 0.022838647
0.051676042 0.02011616 -0.006735714 -0.0099335285 -0.026055653 0.015476972 0.05060004 0.022903295
0.016414572 -0.007037867 0.030642023 0.048553992 0.01213911 0.026749715 0.000111377834 -0.01594676
0.038112137 0.034333613 0.033280727 0.044108085 0.011676838 -0.0056505487 -0.008548337 0.029331286
-0.010032953 0.04028002 0.044122618 0.019347718 0.02815901 -0.027000576 0.03280164 -0.00028862766
0.058019105 0.0261759 0.04149636 0.029950354 0.053534567 -0.024952257 -0.013819605 0.017890353
-0.02889182 -0.0012000658 -0.012848778 0.040431872 0.06428801 0.032196496 -0.013664658 0.024970697
0.06215547 0.030153561 0.032523647 0.0066219685 0.01112143 0.014658652 -0.015097366 0.023924341
-0.026839204 0.067703776 -0.0016767281 0.024765847 0.010177565 -0.0023956504 0.056672104 0.013465168
00000000: f96f 493d cb58 a73c 7b0c f53c d3c2 cd3c
00000010: dd38 453d b48a 56bc 3afa 1e3a aa95 343c
00000020: a811 dd3c 4244 333c b0c3 8c3c fbdc 19bb
00000030: 9c3b 113d 702d 3b3d 2189 a93c 3778 213d
00000040: a8c9 9a3a 75c3 553d 0273 9e3d 2063 18bd
00000050: 33a5 2e3c 9306 1abd 81e8 88bb b7a5 d13c
00000060: 4bec 9f3c 7fc9 563d b3f4 4b3d f54d b53c
00000070: 8574 fabc ba55 a63c 095d 3bbc 8090 de3c
00000080: 7d90 3bbc 1520 843d 37c3 333c 8610 743d
00000090: 8bc4 0f3d a014 22bc d472 873c d10d 083d
000000a0: 802c 133d 365a 563d 46b5 3b3c 4c41 ea3c
000000b0: c50d ae3b 3bb0 083d bd3e e43c f225 1dbd
000000c0: f570 c03c 4fc3 5abb d0fa 193d 10c9 053d
000000d0: 519e e6bc 9871 8ebc 5209 c03c 037a d93c
000000e0: 8ad4 853c 6de2 243d dd8d 8b3c 8ea5 623d
000000f0: 0717 983b fa24 c13c 7e70 d03c 1d18 bb3c
00000100: 42aa 533d a5ca a43c 44b7 dcbb 3dc0 22bc
00000110: aa72 d5bc 2093 7d3c fd41 4f3d b19f bb3c
00000120: da77 863c e89d e6bb fb04 fb3c 8de0 463d
00000130: 1ee3 463c 3822 db3c 8593 e938 c8a2 82bc
00000140: 791b 1c3d 67a1 0c3d 5f51 083d aeaa 343d
00000150: 3550 3f3c 3d28 b9bb 530e 0cbc 2a48 f03c
00000160: 4161 24bc aafc 243d ebb9 343d 1b7f 9e3c
00000170: b9ad e63c 5030 ddbc 035b 063d f352 97b9
00000180: 71a5 6d3d d76e d63c 16f8 293d 725a f53c
00000190: 1047 5b3d ad68 ccbc a06b 62bc ca8e 923c
000001a0: 8aae ecbc 874b 9dba ae83 52bc e49b 253d
000001b0: 6fa9 833d 79e0 033d bbe1 5fbc 598f cc3c
000001c0: bc96 7e3d 9a04 f73c 8437 053d 19fd d83b
000001d0: a936 363c d82a 703c f15a 77bc fbfc c33c
000001e0: e4dd dbbc 47a8 8a3d a9c5 dbba bfe1 ca3c
000001f0: cdbf 263c 5800 1dbb 0221 683d 029d 5c3c

out.weight f4 [10, 128]
0.24743102 -0.08471789 0.059088398 -0.16548812 0.12389433 0.0490999 0.22812064 -0.07046805
-0.039971877 -0.1096312 -0.08506156 -0.057970848 -0.13546194 -0.09120154 -0.15394984 -0.005101677
0.044424765 -0.13621283 -0.19354717 0.061034176 -0.07423835 -0.01399436 -0.030945914 -0.0684284
0.044822015 -0.088323005 0.17155796 -0.012544405 0.05616577 0.07150663 0.0696847 -0.18684384
-0.008830279 0.13581762 0.06670364 -0.09039233 -0.017244723 -0.14020689 0.2500202 -0.030562775
-0.050662518 -0.09715977 -0.10437039 -0.160549 -0.0023973803 -0.028353896 0.07152045 0.24082164
-0.06350432 0.19561133 -0.014543304 -0.056104433 0.05716666 0.004606897 0.027094899 0.07226706
-0.016868504 -0.1158303 -0.001916734 0.10417579 -0.0118990755 0.024355145 -0.1295289 0.14695089
-0.11049877 -0.061312404 -0.10813296 0.02389225 -0.028139193 0.12186793 -0.14938676 -0.123094134
0.0064975126 0.08638862 -0.087573715 -0.1725947 0.053256977 0.052331265 -0.06318875 0.08187546
0.075377025 -0.13358015 -0.18790889 -0.1961255 0.25277027 -0.07103421 0.010029848 0.05598697
0.110588394 -0.064660266 -0.1892733 -0.12421593 0.009082302 0.11935979 0.2739614 -0.0755062
-0.06210146 0.15472443 -0.06397556 -0.10753149 -0.04512461 -0.033642255 -0.00068471977 -0.032420166
0.04975068 0.046896245 -0.023689564 0.1607782 -0.051964052 0.033118527 -0.045934733 -0.027405383
0.22914433 -0.10297793 0.024971353 -0.06261729 -0.054827962 -0.17336866 -0.0024782522 0.31701094
-0.16668162 -0.11858374 -0.103164166 0.045916278 -0.049131032 0.014675537 0.020854203 -0.12323365
-0.037390627 0.077932015 0.22547145 0.043894053 0.02060803 -0.14664875 -0.14891489 -0.066764474
-0.024358662 0.06449794 0.051528115 -0.15981369 -0.029585259 0.058292083 0.04290912 0.137591
-0.19334176 -0.09754911 0.22969575 -0.011731599 -0.06631416 -0.07761135 0.07457948 -0.024260648
-0.034465417 0.047802772 0.124234445 0.15775625 -0.050607014 -0.20237066 0.018909397 -0.007741237
0.070282504 -0.16580829 -0.10992364 -0.07136427 -0.11260252 -0.17985345 -0.28186083 0.13623205
0.17729904 0.022046484 0.17872822 0.30305904 0.094807744 -0.11971838 -0.08016468 -0.120530054
-0.12214941 0.026959904 -0.17542492 0.067413494 -0.029367935 -0.016563969 0.12074013 0.037347004
-0.043744016 0.05508744 -0.028708985 0.19115669 -0.038906578 -0.13324942 0.03718011 -0.061234534
0.18404076 0.0077153062 -0.13137884 0.034829404 0.08431798 -0.08479476 0.20319846 -0.14764638
0.12851678 -0.124993294 0.040724114 0.035069488 -0.14237474 -0.07353462 0.0036494862 -0.043111503
-0.033578753 -0.21525763 -0.028937617 0.1339398 -0.28172064 -0.14970487 -0.0037711868 0.08831426
-0.24338885 0.027341973 0.0726478 0.017423764 -0.013550609 -0.14398162 0.005074475 0.12416801
-0.06265817 -0.10492895 0.017401492 0.13264897 0.27861226 0.032476336 -0.042046983 0.107365444
-0.22980359 0.068356186 0.09763232 0.07021541 0.25508097 -0.018841837 0.06699095 -0.12035748
-0.16293035 -0.140934 0.17929657 -0.02432039 -0.09864127 -0.10258329 -0.21112683 -0.11915969
0.14512518 0.23223424 -0.045765664 0.08321999 0.0005785361 -0.08046347 0.15707879 0.1441411
00000000: 8f5e 7d3e 9380 adbd ad06 723d b875 29be
00000010: 4fbc fd3d fa1c 493d 7598 693e 8e51 90bd
00000020: 8db9 23bd 5386 e0bd c134 aebd d772 6dbd
00000030: 89b6 0abe dfc7 babd 07a5 1dbe f82b a7bb
00000040: bef6 353d 607b 0bbe 3b31 46be f9fe 793d
00000050: 470a 98bd 9a48 65bc 4982 fdbc 3024 8cbd
00000060: 4a97 373d b1e2 b4bd e4ac 2f3e 0c87 4dbc
00000070: 140e 663d 1172 923d dab6 8e3d fe53 3fbe
00000080: e0ac 10bc c613 0b3e eb9b 883d 9d1f b9bd
00000090: ce44 8dbc 6592 0fbe a602 803e c95e fabc
000000a0: 8083 4fbd b4fb c6bd 25c0 d5bd f566 24be
000000b0: 5e1d 1dbb 6e46 e8bc 5079 923d f399 763e
000000c0: 8e0e 82bd 564e 483e 0a47 6ebc c3cd 65bd
000000d0: 9627 6a3d 74f5 963b 1ff6 dd3c c100 943d
000000e0: d12f 8abc 7038 edbd ec3a fbba 1e5a d53d
000000f0: 57f4 42bc 7184 c73c 39a3 04be 4b7a 163e
00000100: 2e4d e2bd b722 7bbd d074 ddbd aeb9 c33c
00000110: 2a84 e6bc e595 f93d d8f8 18be c718 fcbd
00000120: 16e9 d43b 84ec b03d d959 b3bd aabc 30be
00000130: fd23 5a3d 4f59 563d 1a69 81bd 52ae a73d
00000140: 455f 9a3d 3cc9 08be 306b 40be 20d5 48be
00000150: 1b6b 813e 627a 91bd 3b54 243c 9852 653d
00000160: 2b7c e23d 9a6c 84bd dcd0 41be ec64 febd
00000170: f0cd 143c e872 f43d ab44 8c3e ffa2 9abd
00000180: 1a5e 7ebd 1570 1e3e 9e05 83bd 7839 dcbd
00000190: 95d4 38bd 76cc 09bd c47e 33ba 02cb 04bd
000001a0: 5ec7 4b3d 4716 403d 9e10 c2bc 0aa3 243e
000001b0: 42d8 54bd 4ba7 073d 0f26 3cbd 4181 e0bc
000001c0: d0a4 6a3e 18e6 d2bd b990 cc3c 7e3d 80bd
000001d0: 4993 60bd 8e87 31be 2c6a 22bb 424f a23e
000001e0: 96ae 2abe 08dc f2bd bc47 d3bd b512 3c3d
000001f0: 9f3d 49bd aa71 703c 6fd6 aa3c ed61 fcbd
00000200: ea26 19bd d29a 9f3d fde1 663e 40ca 333d
00000210: 2cd2 a83c 172b 16be 257d 18be d0bb 88bd
00000220: d18b c7bc 7f17 843d 250f 533d 33a6 23be
00000230: c95c f2bc aec3 6e3d 79c1 2f3d a8e4 0c3e
00000240: 62fb 45be d4c7 c7bd 5d35 6b3e e535 40bc
00000250: b8cf 87bd b3f2 9ebd 20bd 983d 44be c6bc
00000260: 9c2b 0dbd d7cc 433d a16e fe3d db8a 213e
00000270: 4d49 4fbd 413a 4fbe e1e7 9a3c 34aa fdbb
00000280: 46f0 8f3d a6c9 29be a51f e1bd 6e27 92bd
00000290: 269c e6bd 812b 38be 1050 90be 6a80 0b3e
000002a0: e18d 353e d49a b43c 8804 373e 8e2a 9b3e
000002b0: 902a c23d e92e f5bd 612d a4bd 76d8 f6bd
000002c0: 7829 fabd 04db dc3c 97a2 33be 1610 8a3d
000002d0: 0695 f0bc 29b1 87bc 9a46 f73d 2cf9 183d
000002e0: ed2c 33bd 5ea3 613d 1b2f ebbc 94be 433e
000002f0: 815c 1fbd 8972 08be 2c4a 183d 10d1 7abd
00000300: 2e75 3c3e aed0 fc3b 2d88 06be 47a9 0e3d
00000310: e8ae ac3d e0a8 adbd 4213 503e 9d30 17be
00000320: e799 033e 7cfc ffbd 54ce 263d 06a5 0f3d
00000330: afca 11be 5299 96bd 382c 6f3b b095 30bd
00000340: e089 09bd 7f6c 5cbe 950e edbc 8427 093e
00000350: b03d 90be 3c4c 19be 0426 77bb 1bde b43d
00000360: ed3a 79be 46fc df3c 5fc8 943d 48bc 8e3c
00000370: 6003 5ebc eb6f 13be c847 a63b cc4b fe3d
00000380: ed52 80bd fde4 d6bd 938d 8e3c 22d5 073e
00000390: 44a6 8e3e e805 053d 7539 2cbd 6ae2 db3d
000003a0: a251 6bbe 54fe 8b3d 74f3 c73d 19cd 8f3d
000003b0: f999 823e 325a 9abc 8d32 893d fc7d f6bd
000003c0: 37d7 26be 0151 10be 8599 373e 8e3b c7bc
000003d0: 6f04 cabd 3017 d2bd a231 58be ff09 f4bd
000003e0: b29b 143e d0ce 6d3e c774 3bbd 3e6f aa3d
000003f0: e7a8 173a 08ca a4bd 43d9 203e b999 133e

out.bias f4 [10]
-0.04522287 0.17213519 0.021678092 -0.084066875 0.036595684 0.081519656 0.119759366 0.017297463
-0.15127915 0.0022562973
00000000: 9e3b 39bd 3544 303e 4196 b13c 412b acbd
00000010: 5be5 153d c7f3 a63d 6644 f53d 69b3 8d3c
00000020: ece8 1abe 63de 133b
